CNN with raw data pre-process against baby LCG
poor generalize

In [20]: %run test05.py
X_train.shape: (128, 64)
y_train.shape: (128, 100)
X_test.shape: (128, 64)
y_test.shape: (128, 100)
_________________________________________________________________
Layer (type)                 Output Shape              Param #
=================================================================
reshape_8 (Reshape)          (None, 64, 1)             0
_________________________________________________________________
conv1d_30 (Conv1D)           (None, 62, 64)            256
_________________________________________________________________
conv1d_31 (Conv1D)           (None, 60, 64)            12352
_________________________________________________________________
max_pooling1d_8 (MaxPooling1 (None, 20, 64)            0
_________________________________________________________________
conv1d_32 (Conv1D)           (None, 18, 128)           24704
_________________________________________________________________
conv1d_33 (Conv1D)           (None, 16, 128)           49280
_________________________________________________________________
global_average_pooling1d_8 ( (None, 128)               0
_________________________________________________________________
dropout_8 (Dropout)          (None, 128)               0
_________________________________________________________________
dense_8 (Dense)              (None, 100)               12900
=================================================================
Total params: 99,492
Trainable params: 99,492
Non-trainable params: 0
_________________________________________________________________
None
Train on 128 samples, validate on 128 samples
Epoch 1/100
128/128 [==============================] - 2s 14ms/step - loss: 6.0959 - acc: 0.0156 - val_loss: 4.3989 - val_acc: 0.0312
Epoch 2/100
128/128 [==============================] - 0s 1ms/step - loss: 4.1841 - acc: 0.0391 - val_loss: 4.0427 - val_acc: 0.0312
…
