CNN against randint
suffer from overfitting

In [12]: %run test05.py
X_train.shape: (128, 6400)
y_train.shape: (128, 100)
X_test.shape: (128, 6400)
y_test.shape: (128, 100)
_________________________________________________________________
Layer (type)                 Output Shape              Param #
=================================================================
reshape_6 (Reshape)          (None, 64, 100)           0
_________________________________________________________________
conv1d_22 (Conv1D)           (None, 62, 64)            19264
_________________________________________________________________
conv1d_23 (Conv1D)           (None, 60, 64)            12352
_________________________________________________________________
max_pooling1d_6 (MaxPooling1 (None, 20, 64)            0
_________________________________________________________________
conv1d_24 (Conv1D)           (None, 18, 128)           24704
_________________________________________________________________
conv1d_25 (Conv1D)           (None, 16, 128)           49280
_________________________________________________________________
global_average_pooling1d_6 ( (None, 128)               0
_________________________________________________________________
dropout_6 (Dropout)          (None, 128)               0
_________________________________________________________________
dense_6 (Dense)              (None, 100)               12900
=================================================================
Total params: 118,500
Trainable params: 118,500
Non-trainable params: 0
_________________________________________________________________
None
Train on 128 samples, validate on 128 samples
Epoch 1/100
128/128 [==============================] - 2s 13ms/step - loss: 4.5995 - acc: 0.0000e+00 - val_loss: 4.6249 - val_acc: 0.0156
Epoch 2/100
…
