CNN against baby PRNGs, poor performance

In [13]: %run test05.py
X_train.shape: (128, 6400)
y_train.shape: (128, 100)
X_test.shape: (128, 6400)
y_test.shape: (128, 100)
_________________________________________________________________
Layer (type)                 Output Shape              Param #
=================================================================
reshape_7 (Reshape)          (None, 64, 100)           0
_________________________________________________________________
conv1d_26 (Conv1D)           (None, 62, 64)            19264
_________________________________________________________________
conv1d_27 (Conv1D)           (None, 60, 64)            12352
_________________________________________________________________
max_pooling1d_7 (MaxPooling1 (None, 20, 64)            0
_________________________________________________________________
conv1d_28 (Conv1D)           (None, 18, 128)           24704
_________________________________________________________________
conv1d_29 (Conv1D)           (None, 16, 128)           49280
_________________________________________________________________
global_average_pooling1d_7 ( (None, 128)               0
_________________________________________________________________
dropout_7 (Dropout)          (None, 128)               0
_________________________________________________________________
dense_7 (Dense)              (None, 100)               12900
=================================================================
Total params: 118,500
Trainable params: 118,500
Non-trainable params: 0
_________________________________________________________________
None
Train on 128 samples, validate on 128 samples
Epoch 1/100
128/128 [==============================] - 2s 14ms/step - loss: 4.5264 - acc: 0.0234 - val_loss: 4.2692 - val_acc: 0.0156
Epoch 2/100
…
